tensorzero-deploy/router/router.onnx (onnx, 11990 bytes, 4 tensors)

text_proj.bias f4 [64]
00000000: 08df 93bc 0567 983b 3493 a63b 6b86 12bc
00000010: 508e 113b 8bec 7f3c 3d6b e73c f892 3c3b
00000020: 8d35 4dbc 162d 793c 193a bf3c c7e8 a4bb
00000030: 6beb fd3c 9bee 6c3b fe6f d8bc 3c80 e43b
00000040: 26b9 a23c 7201 903c 39a7 913a d80b 87bc
00000050: 97c5 a73c 6a56 b7bc 14b0 c6bb 1807 63b9
00000060: c0c2 c8bc e23b d93c 8e34 19bc d675 b0bc
00000070: b19b d4bc 3079 bc3b fad2 ec38 0c33 0b3c
00000080: cd81 82bb 0772 983c 3d8b 93bc 5360 f5b9
00000090: 5d28 3abb 755b 36bc 1849 533a 86fa 88bc
000000a0: 582e dc3c 64be 8fbb 3bde 2dbc eba8 9c3c
000000b0: abb1 11bc 5766 88bc 8e4e 163c 9c4b 2bbb
000000c0: c8a3 f03b a028 763c 430c b5bc 4074 0e3c
000000d0: ea2c bebb 6b1c 033c b90b 233c 8657 39bc
000000e0: 24d1 a23b 01f6 a23c 9f86 4fbb 8e32 8a3c
000000f0: 88ef 4d3b c9d5 14bc 6bcf 343a 3fc5 2cba
-0.018050686 0.0046509528 0.005083466 -0.008943181 0.002221007 0.015620361 0.028249377 0.0028774124
-0.0125249745 0.015208503 0.023343133 -0.005032632 0.030996045 0.0036152962 -0.02642059 0.0069732945
0.019863676 0.017578814 0.0011112458 -0.01648514 0.02047996 -0.022380073 -0.0060634706 -0.0002165105
-0.024506927 0.026517812 -0.009350909 -0.021540564 -0.025953146 0.0057517514 0.000112926544 0.008496057
-0.0039827586 0.01860906 -0.01801073 -0.0004680181 -0.0028405406 -0.0111302035 0.0008059903 -0.016721021
0.026877567 -0.00438671 -0.010612066 0.019123515 -0.008892457 -0.016650362 0.009174002 -0.0026137596
0.007343743 0.015024334 -0.022100573 0.008694708 -0.005803694 0.008002381 0.009951525 -0.011312371
0.004968779 0.019892694 -0.0031665934 0.01686981 0.003142329 -0.0090841735 0.0006897363 -0.0006590671

meta_fc.weight f4 [16, 2]
00000000: ff10 823d 55af acbe 118b f03e 974b 243f
00000010: ffd6 ae3e 6d07 0ebf ae87 023f 00a4 0ebe
00000020: 30f4 b4bd ba7e febe 6b93 2fbd 09f3 893b
00000030: 2e6b 01be 39a1 393e 2257 ca3d 7ec3 a43e
00000040: 5aec 25bf ec93 303c 1db7 203f f6d7 203f
00000050: bbbe c43e a74b f0be ae94 48bb fe73 30bf
00000060: cce9 21bf 238c 2e3e 126f 24bf c582 1ebf
00000070: 02a7 953c b826 7d3e f855 fa3d a83f e0bd
0.06350898 -0.33727518 0.469811 0.6417784 0.34148404 -0.5548008 0.5098828 -0.13929749
-0.088356376 -0.4970606 -0.042865198 0.0042098803 -0.12638542 0.18127908 0.098799005 0.321804
-0.6481377 0.010777455 0.6277941 0.6282953 0.38426766 -0.46932718 -0.0030606198 -0.6892699
-0.6324737 0.17045645 -0.6423198 -0.6191829 0.018268112 0.24721801 0.122234285 -0.109496415

meta_fc.bias f4 [16]
00000000: 0362 f8be 4c26 aa3e 71de 97be 935a 483e
00000010: eecf e43e d76d d3bd fddf b9be 11bc 1ebd
00000020: 1dd4 aebe 8f95 693e 865d 2f3e 64ec 18bf
00000030: e356 543e 9f6b 063e d196 c03e 57f3 19bf
-0.48512277 0.33232343 -0.29661897 0.19565801 0.44689888 -0.10323685 -0.36303702 -0.038753573
-0.34146205 0.22810958 0.1712552 -0.59735703 0.2073627 0.13126992 0.37615064 -0.6013693

fc_final.bias f4 [5]
00000000: c68a 993c bbb3 c33d 70dd de3c 9c08 82bd
00000010: 6140 f4bd
0.01874293 0.09555765 0.027205199 -0.06349298 -0.11926342
